…
decode_head.scale_heads.3.4.conv.weight - torch.Size([128, 128, 3, 3]): 
The value is the same before and after calling `init_weights` of EncoderDecoder  

decode_head.scale_heads.3.4.bn.weight - torch.Size([128]): 
The value is the same before and after calling `init_weights` of EncoderDecoder  

decode_head.scale_heads.3.4.bn.bias - torch.Size([128]): 
The value is the same before and after calling `init_weights` of EncoderDecoder  
2021-12-30 00:54:18,648 - mmseg - INFO - EncoderDecoder(
  (backbone): SVT(
    (patch_embeds): ModuleList(
      (0): PatchEmbed(
        (adap_padding): AdaptivePadding()
        (projection): Conv2d(3, 64, kernel_size=(4, 4), stride=(4, 4))
        (norm): LayerNorm((64,), eps=1e-05, elementwise_affine=True)
      )
      (1): PatchEmbed(
        (adap_padding): AdaptivePadding()
        (projection): Conv2d(64, 128, kernel_size=(2, 2), stride=(2, 2))
        (norm): LayerNorm((128,), eps=1e-05, elementwise_affine=True)
      )
      (2): PatchEmbed(
        (adap_padding): AdaptivePadding()
        (projection): Conv2d(128, 256, kernel_size=(2, 2), stride=(2, 2))
        (norm): LayerNorm((256,), eps=1e-05, elementwise_affine=True)
      )
      (3): PatchEmbed(
        (adap_padding): AdaptivePadding()
        (projection): Conv2d(256, 512, kernel_size=(2, 2), stride=(2, 2))
        (norm): LayerNorm((512,), eps=1e-05, elementwise_affine=True)
      )
    )
    (position_encoding_drops): ModuleList(
      (0): Dropout(p=0.0, inplace=False)
      (1): Dropout(p=0.0, inplace=False)
      (2): Dropout(p=0.0, inplace=False)
      (3): Dropout(p=0.0, inplace=False)
    )
    (layers): ModuleList(
      (0): ModuleList(
        (0): LSAEncoderLayer(
          (norm1): LayerNorm((64,), eps=1e-05, elementwise_affine=True)
          (attn): LocallyGroupedSelfAttention(
            (qkv): Linear(in_features=64, out_features=192, bias=True)
            (attn_drop): Dropout(p=0.0, inplace=False)
            (proj): Linear(in_features=64, out_features=64, bias=True)
            (proj_drop): Dropout(p=0.0, inplace=False)
          )
          (norm2): LayerNorm((64,), eps=1e-05, elementwise_affine=True)
          (ffn): FFN(
            (activate): GELU()
            (layers): Sequential(
              (0): Sequential(
                (0): Linear(in_features=64, out_features=256, bias=True)
                (1): GELU()
                (2): Dropout(p=0.0, inplace=False)
              )
              (1): Linear(in_features=256, out_features=64, bias=True)
              (2): Dropout(p=0.0, inplace=False)
            )
            (dropout_layer): DropPath()
          )
          (drop_path): Identity()
        )
        (1): GSAEncoderLayer(
          (norm1): LayerNorm((64,), eps=1e-05, elementwise_affine=True)
          (attn): GlobalSubsampledAttention(
            (attn): MultiheadAttention(
              (out_proj): _LinearWithBias(in_features=64, out_features=64, bias=True)
            )
            (proj_drop): Dropout(p=0.0, inplace=False)
            (dropout_layer): DropPath()
            (sr): Conv2d(64, 64, kernel_size=(8, 8), stride=(8, 8))
            (norm): LayerNorm((64,), eps=1e-05, elementwise_affine=True)
          )
          (norm2): LayerNorm((64,), eps=1e-05, elementwise_affine=True)
          (ffn): FFN(
            (activate): GELU()
            (layers): Sequential(
              (0): Sequential(
                (0): Linear(in_features=64, out_features=256, bias=True)
                (1): GELU()
                (2): Dropout(p=0.0, inplace=False)
              )
              (1): Linear(in_features=256, out_features=64, bias=True)
              (2): Dropout(p=0.0, inplace=False)
            )
            (dropout_layer): DropPath()
          )
          (drop_path): DropPath()
        )
      )
      (1): ModuleList(
        (0): LSAEncoderLayer(
          (norm1): LayerNorm((128,), eps=1e-05, elementwise_affine=True)
          (attn): LocallyGroupedSelfAttention(
            (qkv): Linear(in_features=128, out_features=384, bias=True)
            (attn_drop): Dropout(p=0.0, inplace=False)
            (proj): Linear(in_features=128, out_features=128, bias=True)
            (proj_drop): Dropout(p=0.0, inplace=False)
          )
          (norm2): LayerNorm((128,), eps=1e-05, elementwise_affine=True)
          (ffn): FFN(
            (activate): GELU()
            (layers): Sequential(
              (0): Sequential(
                (0): Linear(in_features=128, out_features=512, bias=True)
                (1): GELU()
                (2): Dropout(p=0.0, inplace=False)
              )
              (1): Linear(in_features=512, out_features=128, bias=True)
              (2): Dropout(p=0.0, inplace=False)
            )
            (dropout_layer): DropPath()
          )
          (drop_path): DropPath()
        )
        (1): GSAEncoderLayer(
          (norm1): LayerNorm((128,), eps=1e-05, elementwise_affine=True)
          (attn): GlobalSubsampledAttention(
            (attn): MultiheadAttention(
              (out_proj): _LinearWithBias(in_features=128, out_features=128, bias=True)
            )
            (proj_drop): Dropout(p=0.0, inplace=False)
            (dropout_layer): DropPath()
            (sr): Conv2d(128, 128, kernel_size=(4, 4), stride=(4, 4))
            (norm): LayerNorm((128,), eps=1e-05, elementwise_affine=True)
          )
          (norm2): LayerNorm((128,), eps=1e-05, elementwise_affine=True)
          (ffn): FFN(
            (activate): GELU()
            (layers): Sequential(
              (0): Sequential(
                (0): Linear(in_features=128, out_features=512, bias=True)
                (1): GELU()
                (2): Dropout(p=0.0, inplace=False)
              )
              (1): Linear(in_features=512, out_features=128, bias=True)
              (2): Dropout(p=0.0, inplace=False)
            )
            (dropout_layer): DropPath()
          )
          (drop_path): DropPath()
        )
      )
      (2): ModuleList(
        (0): LSAEncoderLayer(
          (norm1): LayerNorm((256,), eps=1e-05, elementwise_affine=True)
          (attn): LocallyGroupedSelfAttention(
            (qkv): Linear(in_features=256, out_features=768, bias=True)
            (attn_drop): Dropout(p=0.0, inplace=False)
            (proj): Linear(in_features=256, out_features=256, bias=True)
            (proj_drop): Dropout(p=0.0, inplace=False)
          )
          (norm2): LayerNorm((256,), eps=1e-05, elementwise_affine=True)
          (ffn): FFN(
            (activate): GELU()
            (layers): Sequential(
              (0): Sequential(
                (0): Linear(in_features=256, out_features=1024, bias=True)
                (1): GELU()
                (2): Dropout(p=0.0, inplace=False)
              )
              (1): Linear(in_features=1024, out_features=256, bias=True)
              (2): Dropout(p=0.0, inplace=False)
            )
            (dropout_layer): DropPath()
          )
          (drop_path): DropPath()
        )
        (1): GSAEncoderLayer(
          (norm1): LayerNorm((256,), eps=1e-05, elementwise_affine=True)
          (attn): GlobalSubsampledAttention(
            (attn): MultiheadAttention(
              (out_proj): _LinearWithBias(in_features=256, out_features=256, bias=True)
            )
            (proj_drop): Dropout(p=0.0, inplace=False)
            (dropout_layer): DropPath()
            (sr): Conv2d(256, 256, kernel_size=(2, 2), stride=(2, 2))
            (norm): LayerNorm((256,), eps=1e-05, elementwise_affine=True)
          )
          (norm2): LayerNorm((256,), eps=1e-05, elementwise_affine=True)
          (ffn): FFN(
            (activate): GELU()
            (layers): Sequential(
              (0): Sequential(
                (0): Linear(in_features=256, out_features=1024, bias=True)
                (1): GELU()
                (2): Dropout(p=0.0, inplace=False)
              )
              (1): Linear(in_features=1024, out_features=256, bias=True)
              (2): Dropout(p=0.0, inplace=False)
            )
            (dropout_layer): DropPath()
          )
          (drop_path): DropPath()
        )
        (2): LSAEncoderLayer(
          (norm1): LayerNorm((256,), eps=1e-05, elementwise_affine=True)
          (attn): LocallyGroupedSelfAttention(
            (qkv): Linear(in_features=256, out_features=768, bias=True)
            (attn_drop): Dropout(p=0.0, inplace=False)
            (proj): Linear(in_features=256, out_features=256, bias=True)
            (proj_drop): Dropout(p=0.0, inplace=False)
          )
          (norm2): LayerNorm((256,), eps=1e-05, elementwise_affine=True)
          (ffn): FFN(
            (activate): GELU()
            (layers): Sequential(
              (0): Sequential(
                (0): Linear(in_features=256, out_features=1024, bias=True)
                (1): GELU()
                (2): Dropout(p=0.0, inplace=False)
              )
              (1): Linear(in_features=1024, out_features=256, bias=True)
              (2): Dropout(p=0.0, inplace=False)
            )
            (dropout_layer): DropPath()
          )
          (drop_path): DropPath()
        )
        (3): GSAEncoderLayer(
          (norm1): LayerNorm((256,), eps=1e-05, elementwise_affine=True)
          (attn): GlobalSubsampledAttention(
            (attn): MultiheadAttention(
              (out_proj): _LinearWithBias(in_features=256, out_features=256, bias=True)
            )
            (proj_drop): Dropout(p=0.0, inplace=False)
            (dropout_layer): DropPath()
            (sr): Conv2d(256, 256, kernel_size=(2, 2), stride=(2, 2))
            (norm): LayerNorm((256,), eps=1e-05, elementwise_affine=True)
          )
          (norm2): LayerNorm((256,), eps=1e-05, elementwise_affine=True)
          (ffn): FFN(
            (activate): GELU()
            (layers): Sequential(
              (0): Sequential(
                (0): Linear(in_features=256, out_features=1024, bias=True)
                (1): GELU()
                (2): Dropout(p=0.0, inplace=False)
              )
              (1): Linear(in_features=1024, out_features=256, bias=True)
              (2): Dropout(p=0.0, inplace=False)
            )
            (dropout_layer): DropPath()
          )
          (drop_path): DropPath()
        )
        (4): LSAEncoderLayer(
          (norm1): LayerNorm((256,), eps=1e-05, elementwise_affine=True)
          (attn): LocallyGroupedSelfAttention(
            (qkv): Linear(in_features=256, out_features=768, bias=True)
            (attn_drop): Dropout(p=0.0, inplace=False)
            (proj): Linear(in_features=256, out_features=256, bias=True)
            (proj_drop): Dropout(p=0.0, inplace=False)
          )
          (norm2): LayerNorm((256,), eps=1e-05, elementwise_affine=True)
          (ffn): FFN(
            (activate): GELU()
            (layers): Sequential(
              (0): Sequential(
                (0): Linear(in_features=256, out_features=1024, bias=True)
                (1): GELU()
                (2): Dropout(p=0.0, inplace=False)
              )
              (1): Linear(in_features=1024, out_features=256, bias=True)
              (2): Dropout(p=0.0, inplace=False)
            )
            (dropout_layer): DropPath()
          )
          (drop_path): DropPath()
        )
        (5): GSAEncoderLayer(
          (norm1): LayerNorm((256,), eps=1e-05, elementwise_affine=True)
          (attn): GlobalSubsampledAttention(
            (attn): MultiheadAttention(
              (out_proj): _LinearWithBias(in_features=256, out_features=256, bias=True)
            )
            (proj_drop): Dropout(p=0.0, inplace=False)
            (dropout_layer): DropPath()
            (sr): Conv2d(256, 256, kernel_size=(2, 2), stride=(2, 2))
            (norm): LayerNorm((256,), eps=1e-05, elementwise_affine=True)
          )
          (norm2): LayerNorm((256,), eps=1e-05, elementwise_affine=True)
          (ffn): FFN(
            (activate): GELU()
            (layers): Sequential(
              (0): Sequential(
                (0): Linear(in_features=256, out_features=1024, bias=True)
                (1): GELU()
                (2): Dropout(p=0.0, inplace=False)
              )
              (1): Linear(in_features=1024, out_features=256, bias=True)
              (2): Dropout(p=0.0, inplace=False)
            )
            (dropout_layer): DropPath()
          )
          (drop_path): DropPath()
        )
        (6): LSAEncoderLayer(
          (norm1): LayerNorm((256,), eps=1e-05, elementwise_affine=True)
          (attn): LocallyGroupedSelfAttention(
            (qkv): Linear(in_features=256, out_features=768, bias=True)
            (attn_drop): Dropout(p=0.0, inplace=False)
            (proj): Linear(in_features=256, out_features=256, bias=True)
            (proj_drop): Dropout(p=0.0, inplace=False)
          )
          (norm2): LayerNorm((256,), eps=1e-05, elementwise_affine=True)
          (ffn): FFN(
            (activate): GELU()
            (layers): Sequential(
              (0): Sequential(
                (0): Linear(in_features=256, out_features=1024, bias=True)
                (1): GELU()
                (2): Dropout(p=0.0, inplace=False)
              )
              (1): Linear(in_features=1024, out_features=256, bias=True)
              (2): Dropout(p=0.0, inplace=False)
            )
            (dropout_layer): DropPath()
          )
          (drop_path): DropPath()
        )
        (7): GSAEncoderLayer(
          (norm1): LayerNorm((256,), eps=1e-05, elementwise_affine=True)
          (attn): GlobalSubsampledAttention(
            (attn): MultiheadAttention(
              (out_proj): _LinearWithBias(in_features=256, out_features=256, bias=True)
            )
            (proj_drop): Dropout(p=0.0, inplace=False)
            (dropout_layer): DropPath()
            (sr): Conv2d(256, 256, kernel_size=(2, 2), stride=(2, 2))
            (norm): LayerNorm((256,), eps=1e-05, elementwise_affine=True)
          )
          (norm2): LayerNorm((256,), eps=1e-05, elementwise_affine=True)
          (ffn): FFN(
            (activate): GELU()
            (layers): Sequential(
              (0): Sequential(
                (0): Linear(in_features=256, out_features=1024, bias=True)
                (1): GELU()
                (2): Dropout(p=0.0, inplace=False)
              )
              (1): Linear(in_features=1024, out_features=256, bias=True)
              (2): Dropout(p=0.0, inplace=False)
            )
            (dropout_layer): DropPath()
          )
          (drop_path): DropPath()
        )
        (8): LSAEncoderLayer(
          (norm1): LayerNorm((256,), eps=1e-05, elementwise_affine=True)
          (attn): LocallyGroupedSelfAttention(
            (qkv): Linear(in_features=256, out_features=768, bias=True)
            (attn_drop): Dropout(p=0.0, inplace=False)
            (proj): Linear(in_features=256, out_features=256, bias=True)
            (proj_drop): Dropout(p=0.0, inplace=False)
          )
          (norm2): LayerNorm((256,), eps=1e-05, elementwise_affine=True)
          (ffn): FFN(
            (activate): GELU()
            (layers): Sequential(
              (0): Sequential(
                (0): Linear(in_features=256, out_features=1024, bias=True)
                (1): GELU()
                (2): Dropout(p=0.0, inplace=False)
              )
              (1): Linear(in_features=1024, out_features=256, bias=True)
              (2): Dropout(p=0.0, inplace=False)
            )
            (dropout_layer): DropPath()
          )
          (drop_path): DropPath()
        )
        (9): GSAEncoderLayer(
          (norm1): LayerNorm((256,), eps=1e-05, elementwise_affine=True)
          (attn): GlobalSubsampledAttention(
            (attn): MultiheadAttention(
              (out_proj): _LinearWithBias(in_features=256, out_features=256, bias=True)
            )
            (proj_drop): Dropout(p=0.0, inplace=False)
            (dropout_layer): DropPath()
            (sr): Conv2d(256, 256, kernel_size=(2, 2), stride=(2, 2))
            (norm): LayerNorm((256,), eps=1e-05, elementwise_affine=True)
          )
          (norm2): LayerNorm((256,), eps=1e-05, elementwise_affine=True)
          (ffn): FFN(
            (activate): GELU()
            (layers): Sequential(
              (0): Sequential(
                (0): Linear(in_features=256, out_features=1024, bias=True)
                (1): GELU()
                (2): Dropout(p=0.0, inplace=False)
              )
              (1): Linear(in_features=1024, out_features=256, bias=True)
              (2): Dropout(p=0.0, inplace=False)
            )
            (dropout_layer): DropPath()
          )
          (drop_path): DropPath()
        )
      )
      (3): ModuleList(
        (0): LSAEncoderLayer(
          (norm1): LayerNorm((512,), eps=1e-05, elementwise_affine=True)
          (attn): LocallyGroupedSelfAttention(
            (qkv): Linear(in_features=512, out_features=1536, bias=True)
            (attn_drop): Dropout(p=0.0, inplace=False)
            (proj): Linear(in_features=512, out_features=512, bias=True)
            (proj_drop): Dropout(p=0.0, inplace=False)
          )
          (norm2): LayerNorm((512,), eps=1e-05, elementwise_affine=True)
          (ffn): FFN(
            (activate): GELU()
            (layers): Sequential(
              (0): Sequential(
                (0): Linear(in_features=512, out_features=2048, bias=True)
                (1): GELU()
                (2): Dropout(p=0.0, inplace=False)
              )
              (1): Linear(in_features=2048, out_features=512, bias=True)
              (2): Dropout(p=0.0, inplace=False)
            )
            (dropout_layer): DropPath()
          )
          (drop_path): DropPath()
        )
        (1): GSAEncoderLayer(
          (norm1): LayerNorm((512,), eps=1e-05, elementwise_affine=True)
          (attn): GlobalSubsampledAttention(
            (attn): MultiheadAttention(
              (out_proj): _LinearWithBias(in_features=512, out_features=512, bias=True)
            )
            (proj_drop): Dropout(p=0.0, inplace=False)
            (dropout_layer): DropPath()
          )
          (norm2): LayerNorm((512,), eps=1e-05, elementwise_affine=True)
          (ffn): FFN(
            (activate): GELU()
            (layers): Sequential(
              (0): Sequential(
                (0): Linear(in_features=512, out_features=2048, bias=True)
                (1): GELU()
                (2): Dropout(p=0.0, inplace=False)
              )
              (1): Linear(in_features=2048, out_features=512, bias=True)
              (2): Dropout(p=0.0, inplace=False)
            )
            (dropout_layer): DropPath()
          )
          (drop_path): DropPath()
        )
        (2): LSAEncoderLayer(
          (norm1): LayerNorm((512,), eps=1e-05, elementwise_affine=True)
          (attn): LocallyGroupedSelfAttention(
            (qkv): Linear(in_features=512, out_features=1536, bias=True)
            (attn_drop): Dropout(p=0.0, inplace=False)
            (proj): Linear(in_features=512, out_features=512, bias=True)
            (proj_drop): Dropout(p=0.0, inplace=False)
          )
          (norm2): LayerNorm((512,), eps=1e-05, elementwise_affine=True)
          (ffn): FFN(
            (activate): GELU()
            (layers): Sequential(
              (0): Sequential(
                (0): Linear(in_features=512, out_features=2048, bias=True)
                (1): GELU()
                (2): Dropout(p=0.0, inplace=False)
              )
              (1): Linear(in_features=2048, out_features=512, bias=True)
              (2): Dropout(p=0.0, inplace=False)
            )
            (dropout_layer): DropPath()
          )
          (drop_path): DropPath()
        )
        (3): GSAEncoderLayer(
          (norm1): LayerNorm((512,), eps=1e-05, elementwise_affine=True)
          (attn): GlobalSubsampledAttention(
            (attn): MultiheadAttention(
              (out_proj): _LinearWithBias(in_features=512, out_features=512, bias=True)
            )
            (proj_drop): Dropout(p=0.0, inplace=False)
            (dropout_layer): DropPath()
          )
          (norm2): LayerNorm((512,), eps=1e-05, elementwise_affine=True)
          (ffn): FFN(
            (activate): GELU()
            (layers): Sequential(
              (0): Sequential(
                (0): Linear(in_features=512, out_features=2048, bias=True)
                (1): GELU()
                (2): Dropout(p=0.0, inplace=False)
              )
              (1): Linear(in_features=2048, out_features=512, bias=True)
              (2): Dropout(p=0.0, inplace=False)
            )
            (dropout_layer): DropPath()
          )
          (drop_path): DropPath()
        )
      )
    )
    (position_encodings): ModuleList(
      (0): ConditionalPositionEncoding(
        (proj): Conv2d(64, 64, kernel_size=(3, 3), stride=(1, 1), padding=(1, 1), groups=64)
      )
      (1): ConditionalPositionEncoding(
        (proj): Conv2d(128, 128, kernel_size=(3, 3), stride=(1, 1), padding=(1, 1), groups=128)
      )
      (2): ConditionalPositionEncoding(
        (proj): Conv2d(256, 256, kernel_size=(3, 3), stride=(1, 1), padding=(1, 1), groups=256)
      )
      (3): ConditionalPositionEncoding(
        (proj): Conv2d(512, 512, kernel_size=(3, 3), stride=(1, 1), padding=(1, 1), groups=512)
      )
    )
    (norm_list): ModuleList(
      (0): LayerNorm((64,), eps=1e-05, elementwise_affine=True)
      (1): LayerNorm((128,), eps=1e-05, elementwise_affine=True)
      (2): LayerNorm((256,), eps=1e-05, elementwise_affine=True)
      (3): LayerNorm((512,), eps=1e-05, elementwise_affine=True)
    )
  )
  (neck): FPN(
    (lateral_convs): ModuleList(
      (0): ConvModule(
        (conv): Conv2d(64, 256, kernel_size=(1, 1), stride=(1, 1))
      )
      (1): ConvModule(
        (conv): Conv2d(128, 256, kernel_size=(1, 1), stride=(1, 1))
      )
      (2): ConvModule(
        (conv): Conv2d(256, 256, kernel_size=(1, 1), stride=(1, 1))
      )
      (3): ConvModule(
        (conv): Conv2d(512, 256, kernel_size=(1, 1), stride=(1, 1))
      )
    )
    (fpn_convs): ModuleList(
      (0): ConvModule(
        (conv): Conv2d(256, 256, kernel_size=(3, 3), stride=(1, 1), padding=(1, 1))
      )
      (1): ConvModule(
        (conv): Conv2d(256, 256, kernel_size=(3, 3), stride=(1, 1), padding=(1, 1))
      )
      (2): ConvModule(
        (conv): Conv2d(256, 256, kernel_size=(3, 3), stride=(1, 1), padding=(1, 1))
      )
      (3): ConvModule(
        (conv): Conv2d(256, 256, kernel_size=(3, 3), stride=(1, 1), padding=(1, 1))
      )
    )
  )
  init_cfg={'type': 'Xavier', 'layer': 'Conv2d', 'distribution': 'uniform'}
  (decode_head): FPNHead(
    input_transform=multiple_select, ignore_index=255, align_corners=False
    (loss_decode): CrossEntropyLoss()
    (conv_seg): Conv2d(128, 2, kernel_size=(1, 1), stride=(1, 1))
    (dropout): Dropout2d(p=0.1, inplace=False)
    (scale_heads): ModuleList(
      (0): Sequential(
        (0): ConvModule(
          (conv): Conv2d(256, 128, kernel_size=(3, 3), stride=(1, 1), padding=(1, 1), bias=False)
          (bn): BatchNorm2d(128, eps=1e-05, momentum=0.1, affine=True, track_running_stats=True)
          (activate): ReLU(inplace=True)
        )
      )
      (1): Sequential(
        (0): ConvModule(
          (conv): Conv2d(256, 128, kernel_size=(3, 3), stride=(1, 1), padding=(1, 1), bias=False)
          (bn): BatchNorm2d(128, eps=1e-05, momentum=0.1, affine=True, track_running_stats=True)
          (activate): ReLU(inplace=True)
        )
        (1): Upsample()
      )
      (2): Sequential(
        (0): ConvModule(
          (conv): Conv2d(256, 128, kernel_size=(3, 3), stride=(1, 1), padding=(1, 1), bias=False)
          (bn): BatchNorm2d(128, eps=1e-05, momentum=0.1, affine=True, track_running_stats=True)
          (activate): ReLU(inplace=True)
        )
        (1): Upsample()
        (2): ConvModule(
          (conv): Conv2d(128, 128, kernel_size=(3, 3), stride=(1, 1), padding=(1, 1), bias=False)
          (bn): BatchNorm2d(128, eps=1e-05, momentum=0.1, affine=True, track_running_stats=True)
          (activate): ReLU(inplace=True)
        )
        (3): Upsample()
      )
      (3): Sequential(
        (0): ConvModule(
          (conv): Conv2d(256, 128, kernel_size=(3, 3), stride=(1, 1), padding=(1, 1), bias=False)
          (bn): BatchNorm2d(128, eps=1e-05, momentum=0.1, affine=True, track_running_stats=True)
          (activate): ReLU(inplace=True)
        )
        (1): Upsample()
        (2): ConvModule(
          (conv): Conv2d(128, 128, kernel_size=(3, 3), stride=(1, 1), padding=(1, 1), bias=False)
          (bn): BatchNorm2d(128, eps=1e-05, momentum=0.1, affine=True, track_running_stats=True)
          (activate): ReLU(inplace=True)
        )
        (3): Upsample()
        (4): ConvModule(
          (conv): Conv2d(128, 128, kernel_size=(3, 3), stride=(1, 1), padding=(1, 1), bias=False)
          (bn): BatchNorm2d(128, eps=1e-05, momentum=0.1, affine=True, track_running_stats=True)
          (activate): ReLU(inplace=True)
        )
        (5): Upsample()
      )
    )
  )
  init_cfg={'type': 'Normal', 'std': 0.01, 'override': {'name': 'conv_seg'}}
)
2021-12-30 00:54:18,654 - mmseg - INFO - Loaded 333 images
2021-12-30 00:54:19,866 - mmseg - INFO - Loaded 37 images
2021-12-30 00:54:19,866 - mmseg - INFO - load checkpoint from local path: /home/yuhao-zhou/mmsegmentation/twins_svt-s_fpn_fpnhead_8x4_512x512_80k_ade20k_20211130_141006-0a0d3317.pth
…
